model.pth (torch, 80200 bytes, 5 tensors)

conv1.weight f4 [32, 3, 3, 3]
00000000: 8d56 463e 4365 193e 7d29 0d3d ece5 9fbd
00000010: f47f 0fbe 8b93 0f3e 170d 4a3d 8181 cebd
00000020: c881 d13d 9162 20bd c1a2 1b3e ad5a 253e
00000030: 8618 633e ed7d ff3c f93f debd 3246 4f3e
00000040: 2fd4 423e 0421 e73c 3c16 0fbe 3b24 4d3e
00000050: 0605 1bbe a692 db3d 2676 dbbc 84e6 313e
00000060: 13e7 a8bd f4c6 2c3c d62a 9d3d eee4 4bbd
00000070: 09ed e3bd 527d 27be 5372 11be e13a e83d
00000080: c965 1dbe c091 1c3e 9f92 983d 109b 063e
00000090: 2019 ee3d 42a7 01be 1ff4 b7bb c2df 573a
000000a0: ab1a 04be 2d32 86bd cbf5 31be e806 b13d
000000b0: 923e 57be 3657 7dbd 5d15 bf3d ad8d 2b3e
000000c0: 1da0 e53d 7b07 ce3c 848d 00be d770 ffbd
000000d0: fca2 7f3d 9967 28be 9ffd 41be ed41 053e
000000e0: 01bf 91bd 1be9 c73d 8eb9 19be a56e e2bd
000000f0: 1aff 48be 9cf3 1fbd 0fe5 273e 19e7 4bbd
00000100: 064a 08be 6ef8 0bbe c472 d03d 8673 5cbe
00000110: 1730 3ebd 65f0 40be 25a7 40be 8038 36be
00000120: e0e8 adbb 389d 713d ef62 d93d bb4e 4dbd
00000130: 41e2 53be 484e ce3c f94a 033e 00f5 98ba
00000140: e282 d3bd ff73 953d d753 2f3e 315c 903d
00000150: 8cab b2bd 8175 47bd d4c0 58bc 3e4f ae3d
00000160: f9ca 4a3d 6d2d 37bd 3211 ca3d 31bd ea3c
00000170: 356d 593e b3f8 213e 4acc b73d 73e8 2b3e
00000180: 8428 d23d 05ca 59bd f10a 5d3e dd6b 4a3d
00000190: b016 fa3c abe1 393e 1758 3d3e 16ed d93d
000001a0: bb73 f93d 26a6 063e e318 ab3d 9ed8 263e
000001b0: e602 e2bc 978b d1bd 1d7f eabc 4806 d93c
000001c0: 7463 bcbc 9cc2 043d 7117 1cbe 3314 88bd
000001d0: aa74 02be 6ec1 1abd 7c7f 3cbe 1e33 0bbb
000001e0: 547c 0e3e a41c d4bc 4c54 b63b 77a7 173d
000001f0: bc4f 0f3e f4aa 30be eca5 4ebd ec43 0dbd
00000200: fab7 1a3e faa1 09be 4208 2abe 8735 753d
00000210: 5432 0abe 05ec c23d 6e50 f0bd 1579 3bbe
00000220: a854 26bb 2f1a 33be f175 0b3e 4f8c 61bd
00000230: b7db 073e 313f c03d 81d3 0bbd 10e6 34be
00000240: 0b50 92bd 9f58 c43c fc7a d83d bf9d 8ebb
00000250: 1133 113e 4e6c 54be 35eb 01be 7fc2 c63d
00000260: d8b2 37be c081 22bd fa4e 4abe 8f1c 2fbe
00000270: 3d97 c43d b482 38be baa6 b5bd 3c33 71bd
00000280: 8e36 61be 0c59 783d 123f a43c b2ce dc3d
00000290: f60d 97bc 472a 30bb 98fb e6bd b2fc 89bd
000002a0: 9ab7 503e 8777 ad3c 76c7 633c 0e95 19bd
000002b0: 2d63 2c3e 5c84 7d3d f82b 62bd a41e 0e3e
000002c0: 5103 c2bc 401d c7bd c1cc 053e fa41 e13a
000002d0: 040d 6d3d 62c0 363d ed11 1ebe 5c3e fbbc
000002e0: 0e96 a33a 4c51 663e f58a 1e3e e595 3a3e
000002f0: 073f 013e 5692 793c 2fe4 d83c 298b a23d
00000300: ddca 093e abf4 ff3d d95c 2f3c 0418 03be
00000310: 6a0d 14be c6a1 09be 37e4 a93d 8b98 14be
00000320: 1e1a 3fbe 6289 0fbe 2c64 21be c795 d13d
00000330: 62a6 08be b6ab c53c 0c7d d53c eae2 26be
00000340: a2e1 c3bd a700 6e3c 5f71 fd3d f229 58be
00000350: a607 91bc a6fa 4ebd eb91 b0bb 54c8 e53c
00000360: 1cb9 a5bb cb99 f53d a3bb d03d bef2 673d
00000370: da4b c9bb 9058 11be afb4 25be a8d1 183e
00000380: 752e 2f3e 0ec2 533b df91 403e 00ed 54bd
00000390: 8564 283e b6a1 063e a14f 2a3e 7bdb 4e3e
000003a0: 18b3 203e fce4 523d 21be 593e 5eb9 17be
000003b0: bc9f cb3d 6409 0d3e 8fa9 313e a699 bcbd
000003c0: b4b5 1abe 8d5f 763d e1f7 e23d cc08 3ebe
000003d0: ce3f 43be a906 d93c 9e20 aabd e6c4 24be
000003e0: c9c2 08be 3fb2 d1bd b863 24bd dc2b ac3d
000003f0: 46dc 1cbe 2f8f a7bd 5c30 eb3c 27a7 933d
0.19368954 0.14980035 0.034463394 -0.07807526 -0.14013654 0.14021127 0.04932889 -0.10083295
0.10229832 -0.0391565 0.15198804 0.16147871 0.22177324 0.031187976 -0.108520456 0.20241621
0.19026254 0.028213985 -0.13973325 0.20033352 -0.15138635 0.1072133 -0.026789736 0.17373091
-0.08247199 0.010545481 0.07674186 -0.04977887 -0.11129195 -0.163564 -0.14203767 0.11339355
-0.15370859 0.15289974 0.07449841 0.13145089 0.11625886 -0.1266146 -0.0056138183 0.00082349416
-0.12900798 -0.06552539 -0.17378919 0.086438954 -0.21019962 -0.06185075 0.093302466 0.16753264
0.1121218 0.025150051 -0.12553984 -0.12472694 0.062411293 -0.1644577 -0.18944405 0.1301343
-0.07116509 0.09761258 -0.1501219 -0.1105626 -0.19628564 -0.039050683 0.16395973 -0.04978094
-0.13309488 -0.13668987 0.1017814 -0.21528444 -0.04643258 -0.18841703 -0.1881376 -0.1779499
-0.005307302 0.058987826 0.10614573 -0.05012391 -0.20691778 0.025183812 0.12821569 -0.0011669695
-0.10327698 0.07297515 0.17121826 0.07048834 -0.08724126 -0.048696045 -0.013229568 0.08511208
0.049509976 -0.044721056 0.09866561 0.028654667 0.21233065 0.15817527 0.08974512 0.16787891
0.10261634 -0.053171176 0.21586205 0.049419273 0.030528396 0.18152492 0.18490635 0.10640924
0.12180277 0.13149318 0.08354356 0.1629357 -0.027589273 -0.10231703 -0.028625065 0.026492253
-0.022996642 0.032412156 -0.15243317 -0.06644478 -0.12739816 -0.037782125 -0.18408006 -0.0021240185
0.13914615 -0.025892563 0.005564248 0.03702494 0.1399526 -0.17252713 -0.050451204 -0.034488603
0.15109244 -0.13440695 -0.16604713 0.0598655 -0.13495761 0.095176734 -0.11734091 -0.18307908
-0.002538005 -0.17490457 0.1361921 -0.05506545 0.13267408 0.09387053 -0.034137253 -0.17665887
-0.07144173 0.02396804 0.105703324 -0.004352301 0.14179637 -0.2074444 -0.1268738 0.09705066
-0.17939317 -0.03967452 -0.1975669 -0.17100738 0.09599159 -0.1801861 -0.08869691 -0.05888675
-0.21993467 0.060631797 0.020049606 0.107816115 -0.018439274 -0.0026880668 -0.112784564 -0.06737651
0.20382538 0.02117516 0.013902536 -0.037495665 0.16834708 0.061893806 -0.055217713 0.13878876
-0.023683222 -0.09722376 0.13066389 0.00171858 0.05787374 0.044617064 -0.15436526 -0.030669384
0.0012480633 0.2249195 0.15482695 0.18221243 0.126217 0.015232643 0.026475994 0.07936699
0.13456292 0.124978386 0.010703289 -0.1280213 -0.14458242 -0.13440618 0.08295482 -0.14511316
-0.18662307 -0.14017251 -0.15760869 0.10233646 -0.1334472 0.02412973 0.026060604 -0.16297498
-0.095645204 0.014526523 0.123751394 -0.21109751 -0.017703842 -0.050532006 -0.0053884885 0.028049625
-0.005057467 0.11992224 0.10192039 0.05662798 -0.0061430754 -0.1419394 -0.16182207 0.14923728
0.17107566 0.003231171 0.18805645 -0.051983833 0.16444595 0.13147625 0.16631939 0.20200913
0.15693319 0.051487908 0.21263935 -0.14816806 0.09942576 0.13773113 0.17349838 -0.092089936
-0.15108377 0.060149718 0.110824354 -0.18558043 -0.19067308 0.026492434 -0.083070025 -0.16090736
-0.13355555 -0.10239076 -0.04013416 0.08406803 -0.15318403 -0.08181607 0.028709583 0.07209616

conv1.bias f4 [32]
00000000: d9a4 0e3e 0f5f 013e 9421 133e 47b7 63bd
00000010: 78a7 27be e30b 2d3e 7c1e e33d ce5c a7bd
00000020: 1d94 333d 9acb c6bd e3ab 363e 2154 463e
00000030: 9afd 03be 1e0f 0cbe 644d 013e d930 04be
00000040: cfc2 ce3c 46f3 503e 5df8 22be a6c6 363e
00000050: 3429 9dbd 12c8 45bd 99e1 32be 89e7 29be
00000060: 1520 023e 747a 033e 7ae0 dabd 24b3 56bc
00000070: bfc6 0f3d 02a9 e73d 510b a2bd 3bfa 193e
0.13930072 0.12633918 0.14368278 -0.05559471 -0.16372478 0.16899066 0.11089799 -0.08171998
0.043842424 -0.09706803 0.17839007 0.1936803 -0.1288971 -0.13677642 0.12627178 -0.12909259
0.025239376 0.20405301 -0.15915056 0.17849216 -0.076738745 -0.048286505 -0.17468871 -0.1659223
0.12707551 0.12839681 -0.10687347 -0.013104234 0.03510165 0.113115326 -0.07912315 0.15036862

conv2.weight f4 [64, 32, 3, 3]
00000000: 5848 4abd 6922 463d 90b4 4a3d 4289 e5b8
00000010: 52eb 23bd 4305 62bd 36ab dbbc f481 42bd
00000020: a1d8 7cbc 23d2 4a3c 67ba ea3c 8831 3f3d
00000030: 4e11 6abd 4bc3 ac3c a37c 013d 7954 4ebd
00000040: d90f 233d bd50 613b 34c8 0b3c c68a 66bd
00000050: 86d0 c33b 5f17 5f3d e9da 10bd 73fe 4bbd
00000060: 22d1 a2bc a8d8 7abd 6848 96bc d850 fb3c
00000070: 86f8 873c a3d4 a13c 592d 8bbc 603a 95bc
00000080: 7832 b0bb aa8b 29ba 003f dcbb bed8 5ebd
00000090: 0796 edbc befd a33c 8dbb 51bd 8596 0fbd
000000a0: 6e83 fb3c b1c3 07bd 03f4 603d e280 4ebc
000000b0: 518f e5bc 8ff2 47bd 0d02 83bd 7f22 4e3d
000000c0: dc92 3bbd 794c f7bb a57a a0bc 974f 83b9
000000d0: 6744 cb3c dae0 84bd 383c b2bc 9d5a 663b
000000e0: 26dc cdbb 009a 8a3a df08 a6bc e53e 68bb
000000f0: 23b3 973c 7042 07bd 228e b33c ce3e bb3c
00000100: 9270 9cbb 32c0 5bbc 89f0 333d b9f2 1b3d
00000110: c090 14bd 1ae7 68bd e8c8 043d e90c ce3c
00000120: 497d e3bc ad14 c1bc 271b 1dbc 2e48 4b3d
00000130: 0853 3cbd db99 8a3c 26dd b6bc 4303 173d
00000140: 1bad 483d d2a3 30bd ed2c 1abd 1421 263d
00000150: e598 4f3d 92ed b2bc b9ac 1ebd a8e5 07bc
00000160: a931 6c3d d001 913c 73e4 9cbc e709 79bd
00000170: 0473 80bc 4e35 193d cad4 153d 7fdb 9abc
00000180: ac6e a23c 02c6 0a3d e065 d0bb 56f9 e33c
00000190: 3828 a9bc e278 c6bc 0758 8bbc a793 a8bc
000001a0: 63bf 77bd 5195 d63c 95fc 263d 6752 5ebd
000001b0: 80b1 edbb 4ed2 66bc 06b6 3abb a4e7 0cbc
000001c0: 2e07 08bc ae04 273d 2d92 3c3c 7612 14bd
000001d0: 8c71 ffbc d808 64bd 52f3 3dbd 8d38 c23c
000001e0: 9920 183d 299e 5cbd da7d a53c 1b68 ee3c
000001f0: d58e 2fbd 6c1b 53bd e77e cf3c 766e e03b
00000200: e75e fd3c 73b0 fb3c 9553 9a3c 90f6 1ebd
00000210: a80a a7bc 62cf 11bd db37 38bd 776f a3bc
00000220: 4c15 863c e9d8 6839 e361 00bc 195b 233d
00000230: c1a3 02bd 80e3 48bd bd14 65bd b00e 033d
00000240: 32a0 58bd 1a68 11bd 053d 3c3c bca4 40bd
00000250: 5341 fcbc 028a cd3c cdf5 f53c e54f 153d
00000260: cc93 f33c 28d0 29bd 0fa9 d6bc 2418 a53c
00000270: 5d3d fc3c 7964 94bc b0e0 5a3c 8821 553b
00000280: 7949 2b3c d190 08bd ca21 cbbc 78d0 1bbc
00000290: 06f0 0abd 0a91 7cbc b874 2d3d bc0f 623c
000002a0: 8159 63bd 5839 4f3d 18ee c43c 3daa 30bd
000002b0: a6ac 14bc 8139 3cbc 3798 7dbd 4844 76bc
000002c0: 11d1 b7bb a08c ffbc 158f 54bd b257 0c3d
000002d0: 5ee8 aebc 2708 21bc 4f79 ebbb e869 e6bb
000002e0: e6d9 41bc cd83 3f3c a354 133d 3bdc 13bd
000002f0: 2e9d 0a3d 801e d939 0ee7 2a3d d302 41bd
00000300: 11c8 42bd e252 3cba 4c5e e3bc 943f 1fbd
00000310: 245c 3dbd 2698 39bd 56e4 0ebd 70b8 4bbd
00000320: 8288 b03c 5c8e 0d3c 82bb 233d 5eeb 173b
00000330: 420d 983c 1a3b bb3a 9a13 18bd 42bf fe3c
00000340: 5ae9 b6bc 1aae 70bd 2814 f73b c599 203d
00000350: 7656 bcbc 8401 653c a2bb b73c c81a d0bb
00000360: 75ee 77bd c643 573d ead3 223d 68d2 41ba
00000370: 0c3d 5fbd 2fb1 50bc 727f 46ba 360b 22bc
00000380: 48d4 7cbd 6ac8 c1bc c661 55bd 3a96 b93c
00000390: 8854 a9bc 7c67 a93c d159 503d 9744 3fbd
000003a0: ba5a 4d3d df90 143c 403a 893a 786f 9a3c
000003b0: dc75 c63a bdf6 64bc d419 a2bc 6935 54bd
000003c0: c1ae 123d 0a42 1e3d 4aad e43c 197d 64bd
000003d0: 5afc d63c 07e5 2a3d 935c 7bbb 85ac 5bbd
000003e0: 7704 28bb 5b6d 61bd f39c 463d db66 a73b
000003f0: 4bfb 67bd 34e8 a9bb 05ad f3bc 7a56 413b
-0.0493854 0.04837266 0.049488604 -0.00010945137 -0.04001934 -0.0551808 -0.026815038 -0.047487214
-0.015432508 0.012379202 0.028653337 0.046678096 -0.05714541 0.021089217 0.031613003 -0.05037353
0.039810035 0.00343804 0.008531619 -0.05628469 0.0059757857 0.054465648 -0.03536502 -0.04980321
-0.019875113 -0.061241776 -0.018345073 0.030678198 0.016597997 0.019754713 -0.016989397 -0.018216312
-0.00537711 -0.000646765 -0.0067213774 -0.05440592 -0.029002203 0.020018455 -0.051204253 -0.035055656
0.030702319 -0.03314561 0.054920208 -0.01260397 -0.02802244 -0.048815306 -0.063968755 0.050325867
-0.045794353 -0.007546958 -0.019589731 -0.00025045566 0.02481289 -0.064881995 -0.02175723 0.0035149225
-0.0062823473 0.001057446 -0.020267902 -0.0035437879 0.018518036 -0.033022344 0.02191836 0.022857096
-0.0047741616 -0.013412522 0.043930564 0.038073275 -0.036270857 -0.05686102 0.03241816 0.02515264
-0.027769702 -0.02356943 -0.009588993 0.049629383 -0.045977622 0.016919067 -0.022322249 0.036868345
0.04899321 -0.04312498 -0.0376405 0.04055889 0.05068292 -0.021841798 -0.03873894 -0.0082945
0.057664547 0.01770106 -0.019151902 -0.06080046 -0.015679844 0.03740435 0.036579885 -0.018903492
0.019828163 0.03388024 -0.0063598007 0.027828854 -0.02064906 -0.024227563 -0.017009748 -0.020578219
-0.060485255 0.026194246 0.040768225 -0.054277804 -0.0072538257 -0.0140882265 -0.0028489842 -0.008600149
-0.008302493 0.040775947 0.01150946 -0.03615042 -0.031182073 -0.055672497 -0.046374626 0.023708606
0.037140463 -0.05386177 0.020201612 0.029102376 -0.042860825 -0.051539823 0.025329066 0.0068491055
0.030929042 0.030723786 0.018838683 -0.03880936 -0.020390823 -0.035598166 -0.044975143 -0.019950612
0.016367577 0.0002220605 -0.007835838 0.0398818 -0.03189445 -0.049045086 -0.05592798 0.03199643
-0.05288715 -0.03549967 0.011489158 -0.047032103 -0.030792868 0.025090221 0.030024434 0.036453146
0.029733561 -0.04145828 -0.02620366 0.020153113 0.030790979 -0.018114315 0.013359234 0.0032521207
0.010454529 -0.033341233 -0.024796385 -0.009510152 -0.03392031 -0.015415439 0.04234764 0.013797697
-0.05550528 0.050591797 0.024039313 -0.043131102 -0.009074366 -0.011488319 -0.06191274 -0.015030928
-0.0056096395 -0.031194985 -0.051894266 0.03426332 -0.021351036 -0.009828604 -0.007186092 -0.007031668
-0.011831736 0.011689139 0.035969388 -0.0360987 0.033841304 0.0004141219 0.041724257 -0.047121834
-0.04755408 -0.00071839814 -0.027754925 -0.038878992 -0.04623045 -0.045311116 -0.034885727 -0.04973644
0.021549467 0.008639898 0.039973743 0.0023181061 0.01856101 0.0014284581 -0.03712807 0.031097058
-0.022328068 -0.058759786 0.0075402446 0.039209146 -0.022990447 0.013977412 0.022428337 -0.006350849
-0.060530145 0.05255487 0.03975288 -0.00073937187 -0.05450158 -0.012737556 -0.00075720914 -0.009890368
-0.061725885 -0.023655135 -0.052095197 0.022654641 -0.02067019 0.020679228 0.050866906 -0.04669627
0.05013535 0.009067743 0.001046963 0.01885198 0.0015141326 -0.013974843 -0.019787706 -0.05180875
0.03581119 0.0386372 0.027914662 -0.055783365 0.026243377 0.041722324 -0.003835474 -0.053631324
-0.0025637427 -0.05503593 0.048489522 0.005108697 -0.056636136 -0.0051851515 -0.029745588 0.0029501007

conv2.bias f4 [64]
00000000: a7dd 36bd deab 3bbd e90a 033c 895e 733d
00000010: ad18 babc 7691 243d 268a 1b3d 9c50 e5bb
00000020: 9311 2b3d 96ff 723d 29b7 d8bc 09bb fb3c
00000030: bfae bc3b abf9 8a3d 38b7 ecbc 4ec4 00bd
00000040: a795 2fbd aaa7 113a a8ca d9bc 6740 3ebd
00000050: 5234 233d c44c f33c 853f 48bc 357f f8bb
00000060: 9f32 843c 1cb2 6ebc 17a6 793d 7a56 3dbd
00000070: 83d2 383d f603 933c 7f1f 8abd 4268 ea3b
00000080: baee f8bc f5f4 31bd 7215 f2bc 266d 8a3d
00000090: 6e6c 20bc f4d7 01bb deab 3e3d 1a36 36bb
000000a0: f448 76bd 1c97 84bd 6e90 803c fa61 07bd
000000b0: ffb9 e7bc d3db 05bd 6dc7 073c 3e62 2e3d
000000c0: 0287 523b aee1 0ebd d26a 4f3d 524f 8fbb
000000d0: 489a 413d 2e2d 543d 6962 3cbd 631a e93c
000000e0: 307b 523d 1b99 10bd 8fed 6c3d 74a7 c43c
000000f0: dacd 353d b327 9ebc be68 ce3c 25dc 7d3d
-0.044644978 -0.045818202 0.007998207 0.059416328 -0.022716844 0.040177785 0.037973545 -0.006998135
0.041764807 0.059325777 -0.026454525 0.030728834 0.005758136 0.06785902 -0.02889596 -0.03143721
-0.04286733 0.0005556295 -0.026585892 -0.046448138 0.03984482 0.02969969 -0.0122221755 -0.0075835236
0.01613742 -0.014568832 0.06094941 -0.04622505 0.045122635 0.017946225 -0.06744289 0.007153542
-0.030387271 -0.0434465 -0.029551242 0.067591 -0.009791477 -0.0019812556 0.046550624 -0.0027803243
-0.060128167 -0.06474134 0.01569387 -0.033052422 -0.028286932 -0.032680344 0.008287293 0.04257416
0.0032123928 -0.034883194 0.05063898 -0.0043734694 0.047266275 0.0518009 -0.04599229 0.028454965
0.051387012 -0.035302263 0.05784374 0.02400563 0.04438577 -0.01930604 0.02519643 0.061977524

fc.weight f4 [1, 64]
00000000: 503a 50bc 6fd7 efbd 0dbd d7bc a572 6a3d
00000010: 0773 edbd 2c47 413d 1625 3b3d 1ab4 97b9
00000020: 34f5 1abd 8ed8 833d 7850 8f3d ac6a 0abd
00000030: 55a2 87bd a033 1a3d 10e6 103c c811 98bd
00000040: 4283 e23d c84d 99bd 1403 07be ab35 48bc
00000050: 4d7a b03d c614 d53d 340e 963d bc17 08be
00000060: 6db3 e43c 91fe b7bd de19 acbd 6d2c e1bd
00000070: c60b 3d3d 6a16 133e 5fb9 37bd 9a0a 5b3d
00000080: e86c 0c3e 78e9 bbbd 2222 10bd 73b7 903d
00000090: 2f08 f23d 2fa2 193e 5f66 09bd 5bb0 eabd
000000a0: 3d3e 5bbd d5a4 dabd 1871 16bd 68dc 7dbd
000000b0: 7dc9 cd3d cb2f 6fbd 1869 9cbd 7fed 9c3d
000000c0: 782d 143e 347a 96bd 2432 d93d a593 b6bd
000000d0: dd59 7d3d 48ce f8bd 3214 eebc 751e ba3d
000000e0: 04e0 dbbd 1978 083e 64db 883d 9484 e9bd
000000f0: 569e c7bd 1164 edbc 34f5 843d e9c1 b5bd
-0.012709215 -0.117110126 -0.026335264 0.05723824 -0.11594205 0.047187015 0.045689665 -0.0002893515
-0.0378315 0.06437789 0.0699777 -0.033793136 -0.06622759 0.03764689 0.008843914 -0.074252665
0.11060192 -0.07485539 -0.13184768 -0.012219827 0.08617077 0.10404353 0.07326928 -0.13290304
0.027917588 -0.089841016 -0.08403371 -0.10994802 0.046153806 0.14364019 -0.044854518 0.053476907
0.1371342 -0.0917539 -0.0351888 0.0706624 0.11817967 0.15003274 -0.033544894 -0.114594184
-0.053526152 -0.106759705 -0.03672895 -0.061977774 0.100481965 -0.05839519 -0.076372325 0.07662486
0.1447047 -0.07347527 0.10605267 -0.0891488 0.06185328 -0.1214872 -0.029062364 0.090878405
-0.10736087 0.13327064 0.066824704 -0.114022404 -0.09746997 -0.02897838 0.06492081 -0.08874876
